Sketch_Model_Deployment/model.tflite (tflite, 39352 bytes, 5 tensors)

sequential_2/dense_8/MatMul;sequential_2/dense_8/BiasAdd f4 [4]
000000 db c5 c3 be c5 71 9d be 0f 3f 12 3f 50 db c7 bd
       -0.3823689 -0.30750862 0.5712747 -0.097586274

sequential_2/dense_6/BiasAdd/ReadVariableOp f4 [64]
000000 7a e4 0e bc 31 61 0b 3c f8 9c 9e bd ec ce 89 3d
       -0.008721465 0.008507059 -0.07744783 0.0672892
000010 92 d0 2f 3c be 00 e0 3c 2f f1 58 3c 6c e5 70 3c
       0.010730879 0.027344104 0.013241096 0.014703136
000020 0f 2f 78 bd f0 c0 f1 3c 9e 1e 2a bb da 29 9c bd
       -0.060591754 0.029510945 -0.002595819 -0.0762517
000030 53 9e f1 bc ad a4 48 3c 67 0b 91 3c 8c a8 5e bd
       -0.02949444 0.012246293 0.017705632 -0.054359958
000040 cc b4 05 3d 2c 18 eb bc 52 0d 52 3d 13 25 1d bd
       0.032643124 -0.02869805 0.051282234 -0.038365435
000050 86 f8 f6 bc cb 6a 5b 3d b9 b6 47 3d 4f 8e 1a 3b
       -0.030147802 0.053568643 0.048758242 0.0023583358
000060 9a e6 70 3d 53 2a 87 bc ae a6 91 bc 38 4f 86 bd
       0.05881367 -0.016499674 -0.017779674 -0.065580785
000070 5d e1 20 bc 70 8b 28 bd 4f 95 6b bd 2f be d6 3c
       -0.009819356 -0.041148603 -0.05751544 0.026213733
000080 f5 d6 ac 3c 45 4f 82 3d b5 f1 23 3d 77 ba e0 bc
       0.021098593 0.06362776 0.04002543 -0.027432663
000090 35 11 1d bb 41 c0 6b 3d d9 2c 51 3d 90 1a b5 bc
       -0.0023966555 0.057556394 0.05106816 -0.022107393
0000a0 57 9c 76 3d 07 81 3b bd 9a 07 5e bd da 0a 72 bb
       0.06020769 -0.045777347 -0.05420647 -0.0036932738
0000b0 c4 d0 df bc 81 90 24 bc 3a 75 72 3d 2a 13 8d 3d
       -0.027321227 -0.010044218 0.059193827 0.06888421
0000c0 bf 08 57 bd 1c 58 25 bd 3a a7 22 3d d8 86 23 3a
       -0.052498575 -0.04036723 0.03971026 0.000623805
0000d0 ec ff 7f bc c9 10 e5 3c 49 ba 38 3b 67 48 8b bd
       -0.015624981 0.027962105 0.0028187206 -0.06800919
0000e0 9a 33 16 bd f5 2c 9b 3d ad 07 ef bb 12 b2 58 3d
       -0.036670305 0.07576934 -0.007294616 0.052904196
0000f0 26 c9 33 bd 52 e2 0f 3d 1a 29 71 3d ab 15 56 3d
       -0.043893002 0.035127945 0.058877088 0.052266758

sequential_2/dense_6/MatMul f4 [64, 9]
000000 bd 66 a6 3e 1f b0 d9 bd b6 a7 1d be 34 a5 48 3e
       0.32500258 -0.106292956 -0.15396008 0.1959427
000010 b1 9a 1c be 2a b3 1b 3e 00 7a 79 bd 21 5b 6c be
       -0.15293385 0.15205064 -0.060907364 -0.23081638
000020 f7 73 ad bd 46 47 c6 bd 28 e3 da 3e 5c 79 b2 3d
       -0.08469384 -0.09681563 0.4275143 0.08714554
000030 2c b6 7a be 34 8b 51 be 77 08 89 be bd 12 fa bc
       -0.24483556 -0.20463258 -0.2676427 -0.030526513
000040 99 cd bd bc 0e e1 e7 bd 21 f1 9c 3d dc 0a 9d 3d
       -0.023169326 -0.11322223 0.07663179 0.07668087
000050 0d 7f a7 3e 5a 00 f2 3d c7 60 8a be 02 31 e8 bd
       0.3271412 0.11816473 -0.2702696 -0.113374725
000060 54 eb 29 be 9f 29 b7 3d ef 8d 07 3e 04 fe 0c be
       -0.16593677 0.089434855 0.13237737 -0.13768774
000070 ef 9d 26 be ef 7f b2 be e1 bd 5b be f0 46 7b be
       -0.16271184 -0.3486323 -0.21459152 -0.2453878
000080 6f 92 38 be 5d ee 49 be 8c 04 af 3d 0e 73 37 bc
       -0.1802461 -0.19719835 0.08545789 -0.011196865
000090 5b 6b f3 3d 7d 28 ea bd a5 66 e9 bd 48 b7 bc bb
       0.11885711 -0.11433504 -0.11396531 -0.0057591535
0000a0 5a 0d e5 bd 21 1d 5b be 94 61 27 be c1 3b 0e bd
       -0.11184187 -0.2139783 -0.16345817 -0.034724955
0000b0 95 60 13 3e 23 a7 8c be f5 f8 91 3c cd 8f df 3d
       0.14392312 -0.27471265 0.017818907 0.109161
0000c0 19 74 0f 3c 6c 76 31 3e 48 d5 f4 3d 1a 81 1b be
       0.008755707 0.1733033 0.11954743 -0.15185967
0000d0 50 63 0c 3e 19 7a f7 bd e7 61 c4 bd e6 28 33 bd
       0.1370976 -0.12083835 -0.09588986 -0.043740176
0000e0 f3 ac e6 bc fd f8 91 bd ec 04 e3 3d b8 de 7c 3e
       -0.02815864 -0.07127569 0.11084923 0.24694335
0000f0 1e 1c 58 be 5d a1 3d 3c 0a 5d 8b 3e 83 69 84 be
       -0.21104476 0.011574117 0.2721942 -0.2586175
000100 b7 ce 19 3d 28 01 12 bc 40 0b 96 3a d1 d2 dc bd
       0.037550654 -0.0089114085 0.0011447445 -0.107823975
000110 d4 4e 3c be ef cd 31 3e 2b bf 34 3e 06 75 82 3d
       -0.18389446 0.17363714 0.1765105 0.06369977
000120 ff 98 8e 3d 97 28 85 3e 9d c5 99 3d c1 f0 4b 3e
       0.069627754 0.2600753 0.07508395 0.19916059
000130 86 c3 6c 3e 55 37 13 3e 1f 1e 49 3e 48 ca 18 3d
       0.23121461 0.14376576 0.19640397 0.037302285
000140 65 2d 46 3e db 4c 3c 3e be a8 2a be 84 44 a4 be
       0.19353254 0.18388693 -0.16665933 -0.32083523
000150 a3 f4 46 bd 39 1a 56 be ca 7f 57 3e 9e 63 4d 3d
       -0.048573148 -0.2090844 0.21044841 0.05014383
000160 6d cd 72 be 8c e2 03 be 54 5c 92 bd c7 50 a8 be
       -0.23711176 -0.1287939 -0.071465164 -0.32874128
000170 e9 01 a2 bd 2f 1f c8 bc d4 6e 7c bd e5 d4 5f be
       -0.079105206 -0.024428932 -0.06162913 -0.21858557
000180 09 98 c9 3c 1b f2 4e bc bf 09 86 be 68 b2 36 bd
       0.024608629 -0.012630965 -0.2617931 -0.044603735
000190 60 5a 34 3e fa 09 10 3e d0 d3 b5 3a a6 d7 42 be
       0.176126 0.14066306 0.0013872329 -0.19027576
0001a0 30 b6 99 3a d4 54 81 be ce 36 19 be 1f a2 ee bd
       0.001172727 -0.2526003 -0.14962313 -0.11652016
0001b0 d2 bd 3a 3e f7 f6 23 bd dd b5 6a bd d7 7d d8 3d
       0.18236473 -0.040030446 -0.057302345 0.10570877
0001c0 b2 be 85 3d 3d ce 4d be 72 03 76 3e 43 ed a7 bc
       0.06530513 -0.20098205 0.24024752 -0.020498877
0001d0 3a eb 50 bd be 0c 83 be 8d f0 c3 3e 03 11 a1 bd
       -0.05100558 -0.2559566 0.38269463 -0.07864573
0001e0 64 71 ad 3d ea be 85 3e 02 c6 34 be e4 91 65 bd
       0.08468893 0.26122218 -0.17653659 -0.056047335
0001f0 e4 dc fd bb 06 8d 8a 3e 7c e5 a2 bd 0a 58 88 bd
       -0.0077472795 0.27060717 -0.07953927 -0.06657417
000200 c8 9c 39 3a 55 7e 92 bb fc 28 37 bd 44 ee f6 bd
       0.0007080552 -0.0044706264 -0.04471682 -0.12057164
000210 ce bd de bb 1b 89 ea bd 43 4b 60 3e 77 ec ad bd
       -0.006797529 -0.11451932 0.2190371 -0.08492368
000220 7f 4c d2 bb 95 29 bc 3e f7 d5 4d be cf 4d 29 3e
       -0.0064178105 0.36750475 -0.20101152 0.16533588
000230 8f 89 55 3e 5d 10 11 3e 79 60 4a 3e f4 20 4e be
       0.20853256 0.14166398 0.19763364 -0.20129758
000240 51 d7 28 3e 3b 30 18 bd 32 0c f3 3d dc c9 5f 3e
       0.16488387 -0.03715537 0.118675604 0.21854347
000250 8c e0 96 3d a7 77 4a 3d d5 cf 01 3e 4f cd a2 bd
       0.07367048 0.049430516 0.12676938 -0.07949316
000260 87 5c 63 be bf 2b 0b 3e db c9 a5 3e 15 07 14 be
       -0.22203265 0.13590907 0.32380566 -0.14455827
000270 26 62 27 bd db 78 3f bc f4 21 04 3d 83 83 ba bc
       -0.040865086 -0.011686529 0.032258943 -0.022767788
000280 07 5a ec 3d 48 88 0f 3e 78 98 03 be 07 87 1c be
       0.11540609 0.14016831 -0.12851131 -0.15285884
000290 9c a1 0e 3d 31 c3 2b 3e ff ac 7b 3e 3b b6 27 3e
       0.03482209 0.16773678 0.24577712 0.16378109
0002a0 67 46 47 be 2c e7 3b bd 8a cb 56 3e 7d 2b 40 be
       -0.1946045 -0.04587476 0.20976081 -0.1876659
0002b0 44 94 12 bd 8c 4c 71 3d 62 48 22 3e 4b 34 40 be
       -0.03578593 0.05891089 0.15847924 -0.18769948
0002c0 5e ed 7b bc 90 95 f0 bd bf ed 82 3e 1c 14 88 be
       -0.015376417 -0.11747277 0.2557201 -0.26577842
0002d0 07 c0 75 be 14 14 ce 3e 1d 45 91 3e 3d 8f 98 bd
       -0.23999034 0.40249693 0.28373042 -0.074491955
0002e0 2e 91 33 3e f6 6a 36 be 2a 37 4e bd 5d 1c d1 bd
       0.1753585 -0.1781424 -0.050345577 -0.10210488
0002f0 bc dd 5a be 2b b9 9a bd 05 66 12 3d ba cc d5 3d
       -0.21373647 -0.07554849 0.035741825 0.10439439
000300 9c ae e7 bd 88 83 5d 3e d3 07 06 3e e1 0a 09 be
       -0.11312601 0.21632206 0.13088922 -0.13383056
000310 8b da 0d be b0 68 08 3e e2 74 0b 3e f3 44 a2 be
       -0.13852899 0.13321185 0.13618806 -0.3169323
000320 d1 1d 84 3d b1 65 e1 3d 95 0b 88 be c3 3f 51 be
       0.064509995 0.11005724 -0.26571336 -0.2043448
000330 70 b3 9b bd 61 8e 50 3e 4f 73 11 be bd f6 a5 3d
       -0.07602584 0.20366813 -0.14204143 0.08103702
000340 fd 0a 44 3d b3 3b 1d 3e b8 69 c3 bc dc b8 fd 3d
       0.04786204 0.15354805 -0.023854122 0.12388775
000350 41 c3 84 3e 1f 38 21 3e d4 3a 45 bd 65 f8 87 3d
       0.25930217 0.15744065 -0.048151806 0.06639174
000360 b5 18 72 bd 02 16 05 be 1e d4 10 be 0b a9 66 3e
       -0.059105594 -0.12996677 -0.14143416 0.22525422
000370 34 0d cc bd 69 29 88 bd ec 89 8c 3d 90 d7 72 be
       -0.09963456 -0.06648523 0.06862244 -0.23715043
000380 ad 90 cd bd 3a 58 e6 bd 4e 98 0c 3e cf b3 94 bd
       -0.1003736 -0.11247297 0.13729975 -0.07260858
000390 d0 56 14 3e a5 90 83 3e eb 75 87 3d d8 2d c1 3c
       0.14486241 0.25696293 0.06614288 0.02358143
0003a0 e5 bc 1f be a2 2c e5 3d 0d 6b 33 3b 3b db 75 3e
       -0.15599401 0.11190154 0.002737704 0.24009411
0003b0 8b 71 cf bc 5e cb 88 3e 9d 90 52 3e 6c 8e c2 3d
       -0.025322696 0.26717657 0.20562978 0.09499821
0003c0 63 06 5b bc 14 c2 a6 3d 27 b4 78 3e 01 ab 2c 3e
       -0.013368222 0.08142486 0.24287473 0.16862108
0003d0 fd 37 dc bd 5b a2 2b 3e 37 91 7f bd b9 f8 53 3d
       -0.107528664 0.16761152 -0.062394347 0.051750872
0003e0 d7 07 26 bc 9b 10 c8 bd c6 90 6e bb bf 3a 0f bd
       -0.010133705 -0.09768792 -0.003640221 -0.034968134
0003f0 de 21 4e 3e 07 a1 86 3e a9 26 a7 3e a8 f2 3e 3e
       0.20130107 0.2629473 0.32646683 0.18647254

sequential_2/dense_7/MatMul f4 [128, 64]
000000 ca 25 c8 3c af 30 e4 3d e0 13 f5 3c 47 06 05 3e
       0.024432082 0.11142098 0.029916704 0.12990676
000010 49 fc 90 3d b3 70 12 bd df a0 32 3e 71 6a 9f bd
       0.070793696 -0.03575201 0.1744418 -0.07783974
000020 22 c1 10 3e c2 7d 29 bc d2 33 25 be 8c 4a 22 be
       0.14136174 -0.010344924 -0.16133049 -0.1584875
000030 5d a3 a9 3d ec 59 ff bc aa 46 1d 3d 9f 72 e9 3d
       0.08283112 -0.031170808 0.03839747 0.11398815
000040 68 93 de bd 54 c8 de bd ea cd 10 be ac cc 13 3d
       -0.10867959 -0.10878053 -0.1414105 0.036083862
000050 dd 81 33 be c5 e6 59 bc 1c b1 e8 3d fa 6f bf 3d
       -0.17530008 -0.013299649 0.11361906 0.0934753
000060 3f 22 21 3d 7b 6e 05 be be 5e 8b 3d 51 4f 07 3e
       0.0393393 -0.13030426 0.0680518 0.1321385
000070 ab b4 00 be 65 1b 82 bd b8 ce 2d bd 9e a9 81 3d
       -0.1256892 -0.06352881 -0.04243347 0.0633118
000080 2e de 1e 3c 2a c7 98 3d d4 a3 71 bd b8 6d 22 be
       0.009696526 0.074598625 -0.05899413 -0.15862167
000090 83 c7 39 bd 04 4d 2a be 74 79 ac bd 3c a3 05 3e
       -0.045356285 -0.16630942 -0.08421603 0.1305055
0000a0 87 dd 7a bd 36 de 0f be 8d bc 8f 3c 0d 45 87 bd
       -0.06124642 -0.1404961 0.017545963 -0.06604967
0000b0 93 f0 af 3d b3 98 96 bd ca 28 12 3e f1 a2 09 be
       0.08590808 -0.07353344 0.14273372 -0.13441063
0000c0 fe 7a a0 bd f6 70 17 3e bb 40 22 be fe 61 b6 3d
       -0.07835959 0.14789185 -0.15845005 0.08905409
0000d0 e5 85 c6 bc f6 03 3d 3d 5f 90 68 bc 6e 42 1d bc
       -0.024233768 0.046146356 -0.014194577 -0.009598358
0000e0 12 55 c9 bd c2 12 12 3e e9 2f d4 bc a0 a2 26 bd
       -0.09830679 0.14264968 -0.025901752 -0.040682435
0000f0 9b 83 1c 3e b1 ab b9 3d 5e 31 f2 3d f5 98 ef bd
       0.15284579 0.09065951 0.11825822 -0.11699096
000100 86 44 da bb 89 6e d0 bd 2f 77 2d be 66 0f 83 3d
       -0.0066610007 -0.10177333 -0.16939996 0.063994214
000110 1c 0b 4a 3c 7f 3d 1b 3e 02 54 7b bc c2 83 37 bd
       0.01233175 0.15160178 -0.015339853 -0.04480339
000120 d2 1a 25 be 9e c3 3c 3e 65 4d 07 be 99 16 37 be
       -0.16123512 0.18433997 -0.13213117 -0.17879714
000130 bb 32 e4 bd 86 93 ab 3d 12 cf 21 3e 62 11 27 3e
       -0.111424886 0.08377747 0.15801647 0.16315225
000140 df 3a 19 be 20 0d a8 bb c1 df 15 3e 42 0b 29 3e
       -0.14963864 -0.0051285177 0.14636137 0.16508201
000150 66 67 2c bd 8e 21 d1 bb 4b 9d 1f be 8d 53 40 3d
       -0.042090796 -0.006382174 -0.15587346 0.04695468
000160 45 62 2a 3e de a4 d7 3c d2 88 1e 3e 75 5a d1 bd
       0.1663905 0.026323732 0.1548188 -0.102223314
000170 ee 5f 09 be b5 36 25 be 2a a9 a0 3d 64 32 14 3e
       -0.134155 -0.1613415 0.078447655 0.14472347
000180 8f 28 dc 3d fb 95 a6 bd b7 54 fc 3c b1 c2 03 be
       0.107499234 -0.08134075 0.030802114 -0.12867238
000190 65 6c 9f ba 45 7e ef 3c 04 13 91 3b cf ca 30 3e
       -0.0012163041 0.029235015 0.0044273157 0.17264865
0001a0 b0 0f 0d be b9 14 fe 3a c5 63 3f bd ce 68 12 be
       -0.13775516 0.0019384838 -0.046726007 -0.14297792
0001b0 cb 70 01 3e ac 1f 33 be 97 c7 9a 3d e1 6c d7 bd
       0.12640683 -0.1749255 0.075576 -0.10518814
0001c0 9b 32 27 3e a9 99 60 bb 55 8b 6c bd 1d c7 c9 bc
       0.16327898 -0.0034271276 -0.057750065 -0.024631077
0001d0 8f df 53 3c b5 22 f2 3b 7c 72 c1 3d 4c 5d 23 be
       0.0129317185 0.0073893913 0.09445664 -0.15953559
0001e0 e7 60 f7 bd 6d 4b bb 3d 17 05 2e bd 4e 38 03 3e
       -0.120790295 0.09145246 -0.042485323 0.12814447
0001f0 01 e4 ad 3c 9a 59 c6 bb 29 42 25 bd 0f 87 f1 3d
       0.021226885 -0.006053162 -0.0403463 0.117933385
000200 8d ca 08 3e 16 4a 0a 3e c5 d2 fa bd ac ea f4 3d
       0.13358517 0.13504824 -0.12247232 0.119588226
000210 a6 73 11 be 36 6d 80 bc 56 f1 3c bd 56 d8 1f 3e
       -0.14204273 -0.015677076 -0.046128593 0.1560987
000220 31 07 55 3d f2 96 91 bc 39 0e 23 3e dc 4d ab 3d
       0.05200881 -0.017772172 0.15923394 0.0836446
000230 81 a1 28 3e 2e 11 11 be c6 03 d8 bc ee d9 02 be
       0.16467859 -0.1416671 -0.026368987 -0.12778446
000240 91 b5 26 3e e9 36 2e be 6f e0 34 3e 39 ea 27 be
       0.162802 -0.17013134 0.1766374 -0.16397943
000250 47 fa 12 3e 90 8b fc 3c db 7b bf bd e6 9b 55 3c
       0.14353286 0.030828267 -0.093497954 0.013037657
000260 52 19 01 3e ae 5c 26 3e ef 26 eb bd ef 39 25 3e
       0.12607315 0.16246292 -0.11482035 0.16135381
000270 93 13 1a bd b9 be 12 be fc b6 01 3e 3b f2 7a bd
       -0.037616324 -0.14330567 0.12667459 -0.061266165
000280 83 1b cc bc d4 b4 1a be f5 50 89 3d ac bd 9e bd
       -0.024915462 -0.15108043 0.067048945 -0.07751021
000290 cd c0 20 3e 41 32 62 3d 23 f8 11 3d 22 70 e9 bd
       0.15698548 0.055223707 0.035637032 -0.11398341
0002a0 d0 43 6a 3c 52 d5 1b 3e cf 81 7a 3c 7b ef 13 3e
       0.014298394 0.15218094 0.015289738 0.14446823
0002b0 7f f5 35 be d1 38 a4 bd 9b 28 7e 3d ea 15 e2 bd
       -0.1776943 -0.08018649 0.062050443 -0.11039336
0002c0 07 72 b1 bb 19 e6 1a 3c 00 80 06 3d 21 49 dd 3d
       -0.0054152044 0.009454274 0.032836914 0.10804964
0002d0 f2 71 80 bd a8 f6 e1 3c 76 53 00 3e 7c 8a c8 3d
       -0.06271733 0.027583435 0.12531838 0.09792039
0002e0 96 7a 07 be f9 b4 94 bd 90 ba d9 bd 30 64 fc 3d
       -0.13230357 -0.0726108 -0.10631287 0.12323797
0002f0 ca 57 1e 3d cd 62 0e 3c 0e c6 19 3e 1d 99 8e 3d
       0.03865794 0.008690548 0.15016958 0.06962798
000300 40 58 df bc e4 ac ac 3d 15 4d d0 3d ca 29 05 3e
       -0.02726376 0.08431414 0.10170952 0.13004223
000310 d8 e2 8a bc fa c8 31 be 70 68 17 3e 30 2a 25 3e
       -0.01695387 -0.17361823 0.14785933 0.16129375
000320 19 cc 8b 3d e8 00 ea b9 ae 5c da bd 12 e3 f1 b9
       0.06826038 -0.00044632633 -0.106622085 -0.00046136283
000330 76 28 27 be a5 bc 1a 3e 84 cd b3 3d 51 69 d0 bd
       -0.16324028 0.15111025 0.08779433 -0.101763375
000340 22 f4 92 bc 22 15 35 be 8d 6a 04 3e 85 8d cd bd
       -0.017938677 -0.17683843 0.12931271 -0.10036758
000350 61 ac a1 3d 2a 93 8e 3d 8d 60 0a 3e f9 7f b7 bd
       0.07894207 0.06961663 0.13513394 -0.08959956
000360 f9 9b 14 3e 11 4b d9 3d a2 e5 e5 3d c1 b5 41 3c
       0.14512624 0.10610021 0.112254396 0.011823119
000370 a8 7a 07 be 05 06 e2 3c 7d 9e 33 be 22 36 80 bd
       -0.13230383 0.027590761 -0.17540927 -0.06260325
000380 51 b0 51 bd bb 53 2f 3e dc f6 82 3d bc 99 11 be
       -0.05119354 0.17121784 0.06394741 -0.14218801
000390 c2 f5 44 3d 70 15 b6 bd 76 72 2f be 9b b9 ab bd
       0.048085935 -0.08890808 -0.17133507 -0.08385011
0003a0 54 69 1c bd 7f 33 17 be 1e 4e a7 bd d6 02 a2 3d
       -0.038186386 -0.14765738 -0.081691965 0.07910697
0003b0 46 68 d3 bd ce 27 d0 bb 77 c2 08 be e5 16 25 be
       -0.10322623 -0.0063524013 -0.13355432 -0.16122015
0003c0 47 02 c7 3a 23 2a 2d be 54 9f 5d 3d d9 a3 2e be
       0.0015183174 -0.16910605 0.054107025 -0.1705469
0003d0 1b 35 33 be 53 de 1e bd fa 5f 94 3d d2 5b b2 3d
       -0.17500727 -0.038786244 0.072448686 0.087089196
0003e0 8f 4b bd bd 67 e9 ae 3c f7 7f 8c bd 9f 29 44 bd
       -0.09242927 0.02135153 -0.06860345 -0.047891255
0003f0 f1 60 be bd b0 98 09 be ba 10 0a 3e c8 b0 95 3c
       -0.09295834 -0.13437152 0.13482943 0.018272772

sequential_2/dense_8/MatMul f4 [4, 128]
000000 ce 9c c8 bd 99 0f bd bd 91 f3 c5 3d 0d 80 46 be
       -0.09795533 -0.09231491 0.09665597 -0.19384785
000010 56 e9 4a be 98 61 b7 bd d0 ed af bc dc 09 f4 bb
       -0.19815573 -0.089541614 -0.021475703 -0.0074474644
000020 96 11 21 3e d3 e8 a2 bd 37 15 46 3e 0b b5 f3 bd
       0.15729365 -0.07954564 0.1934403 -0.118997656
000030 b6 5c 3d bd 68 40 b6 bd 95 dc b5 bd 18 41 f5 bd
       -0.046230994 -0.08899003 -0.08879963 -0.11975306
000040 69 3d e4 3d 7c 4a 29 3e f3 00 f3 bd 2c 56 07 be
       0.111445256 0.1653232 -0.118654154 -0.13216466
000050 4c 44 a6 3d c7 19 ed 3d 75 df ac bc cb af 2e be
       0.08118495 0.11577182 -0.021102646 -0.17059247
000060 95 fb ca bd b5 c6 9a 3d f3 22 3d bd 65 48 d0 3d
       -0.09911267 0.075574316 -0.04617591 0.10170058
000070 de a2 32 3e c2 98 4f 3e 5e f7 91 3c 7d 78 4d be
       0.17444941 0.20273116 0.01781815 -0.20065494
000080 a9 45 e3 3d 42 0e 35 be 80 c1 74 3d 1d 4d bc 3c
       0.11097271 -0.1768122 0.05975485 0.02298599
000090 16 a5 48 be 0e da 1d be dd 3f 3b bd c7 28 19 3e
       -0.19594225 -0.15415213 -0.0457152 0.14956962
0000a0 a3 3e 1b be b7 56 e3 bd 41 a0 c8 bc 9b 97 ff 3c
       -0.15160613 -0.11100524 -0.024490478 0.03120022
0000b0 0c cc 45 be 70 68 0d 3e b4 67 d4 3d d9 5e 92 3d
       -0.19316119 0.13809371 0.10371342 0.07146997
0000c0 56 4f 22 3e 8f 3a 21 3e 76 38 78 bd b0 cc 2c be
       0.15850577 0.15744995 -0.06060072 -0.16874957
0000d0 2f bd 5d 3c eb 23 86 bc 7c f1 2c be 10 17 eb 3d
       0.013533874 -0.016374549 -0.16888994 0.11479008
0000e0 73 a3 e0 bc ca 81 33 be 8c 02 02 3e bf 83 e9 bd
       -0.027421689 -0.1752998 0.12696284 -0.11402082
0000f0 2b 08 0e 3e cd b0 04 3e 0c a2 20 bd f7 6a 65 3d
       0.13870303 0.12958069 -0.03921704 0.056010213
000100 a5 6b c2 bd dd a7 22 bb 83 3e 19 be e9 cb b1 3c
       -0.09493188 -0.0024819293 -0.14965253 0.021703677
000110 49 da d5 3d e7 6e 42 bc 29 1c a6 bc d7 a0 a2 bd
       0.10442025 -0.0118672615 -0.0202771 -0.07940834
000120 a8 f2 c1 3d 46 6b 48 3c f3 a6 62 bd b5 1e b8 bd
       0.09470111 0.012232607 -0.055334996 -0.08990232
000130 ad de c0 3d 8b 1c 4b 3d 33 09 4c 3d 29 d6 76 bd
       0.09417472 0.049587768 0.04981346 -0.060262833
000140 5a b7 fc 3d dd 63 45 3e 18 59 de 3d c3 b8 00 be
       0.12339659 0.19276376 0.10856837 -0.12570481
000150 35 60 b1 3d 4d 9e 3d 3e 34 b8 a1 bd 4f 0e 79 bc
       0.08660928 0.18517418 -0.07896462 -0.015201165
000160 f6 9b 50 ba 29 28 42 bd 6b 7e fd 3d 23 8b 86 bd
       -0.00079578103 -0.04740158 0.12377628 -0.06569507
000170 c0 79 93 bd 7e 81 43 3e 6e 40 12 3e 27 c5 df 3c
       -0.07200956 0.19092366 0.1428239 0.02731569
000180 bf be f4 bd 1b 9f b5 3d 6b 9e fa 3c b6 a1 9b bd
       -0.119504444 0.088682376 0.030593118 -0.07599203
000190 7e ce 7b 3b fb 12 16 be 0f 3e 17 be 5d f3 0d be
       0.003842264 -0.14655678 -0.14769767 -0.13862367
0001a0 f3 7d 57 bd 45 e0 cc bd b9 7e eb 3d 0e bb 3e 3e
       -0.05261035 -0.100037135 0.1149878 0.18626043
0001b0 a5 24 33 3e ec c4 2e 3e cc bc 68 3d 9f f5 48 3e
       0.17494448 0.17067307 0.056820676 0.19624947
0001c0 90 37 9f bd 61 55 6d bd 2a af 3e be 78 3a af bd
       -0.077742696 -0.05794275 -0.18621507 -0.08556074
0001d0 c9 8d 10 bd b8 26 10 3e 38 f4 ae bd b1 fb 19 3b
       -0.035291467 0.1407727 -0.08542675 0.0023495967
0001e0 74 4c f7 bc 30 3a 0b bc 6a e0 6e bd ea 79 11 3e
       -0.030187823 -0.00849776 -0.058319487 0.14206663
0001f0 9c dc fe 3d 5b 71 18 bc 7f 57 0d bc 38 17 31 3e
       0.12444422 -0.00930437 -0.008626818 0.17294014
000200 c8 c5 1c be 95 e7 e9 bc c2 ee 2f be fd 43 59 be
       -0.15309823 -0.02855281 -0.17180923 -0.21217342
000210 ad a2 17 be 70 db e4 3d 04 28 f5 bc a1 1d 36 be
       -0.1480815 0.11174667 -0.029926307 -0.1778474
000220 07 0b e5 bc b5 6f 3f be 39 83 29 3e 93 db 83 3d
       -0.02795936 -0.18694957 0.16553964 0.06438365
000230 97 8b fc 3b 7b 4c 0a 3e a6 c4 cc bd b0 33 0a 3d
       0.00770707 0.13505737 -0.09998445 0.0337407
000240 2a 1e a0 3d 6e e3 6e bd 4f 85 57 be b0 fe d0 bd
       0.07818253 -0.058322363 -0.21046947 -0.10204828
000250 69 1a 22 be 82 a9 80 bd 8a db 43 3e 54 f3 42 3e
       -0.15830387 -0.06282331 0.19126716 0.19038135
000260 d4 f9 19 be e6 92 00 3e 82 69 af 3d 2a eb 47 be
       -0.15036708 0.12556037 0.08565046 -0.19523302
000270 f9 71 10 3e 5a 32 d0 3d 68 54 61 3d f9 da 45 be
       0.14105977 0.10165854 0.055012137 -0.19321813
000280 f4 18 05 3e 1c d3 47 be 28 6b 7c 3d f0 2d c4 bd
       0.129978 -0.19514126 0.06162563 -0.095790744
000290 ec ce 18 be 30 82 3e bd b2 c1 e6 3d 56 b2 85 3d
       -0.14922684 -0.046510875 0.11267413 0.065281555
0002a0 4a c6 31 be a8 83 cd 3d 46 40 21 bd 4b 7a cb bd
       -0.17360798 0.10034877 -0.039367937 -0.09935435
0002b0 cd 85 14 be 3f 86 28 3d df 03 4c be a1 af 50 be
       -0.14504166 0.041143652 -0.19923352 -0.20379497
0002c0 30 1b b1 bd 12 80 42 be af 9e 4a 3e 1f 3c 14 3e
       -0.08647764 -0.18994167 0.19787095 0.1447606
0002d0 81 42 68 3d 73 bb 23 be 58 bf 3f 3e 31 e0 a4 bd
       0.056704048 -0.15989475 0.18725336 -0.080505736
0002e0 7a 48 bd 3c 07 90 35 3e 93 39 18 be 20 f9 a6 bd
       0.023105849 0.17730723 -0.14865713 -0.081529856
0002f0 12 6a 15 3d 30 de b8 3d 27 97 0a be eb ff 00 3e
       0.03647811 0.09026754 -0.13534223 0.12597625
000300 25 1d 3d 3e 81 b1 2d bd 81 fe 60 3d e3 92 2d be
       0.18468149 -0.04240561 0.054930214 -0.16950564
000310 ca 08 32 3e c2 da 3b be 2c 08 ee 3c b6 e3 68 bb
       0.17386165 -0.18345168 0.029056631 -0.0035536117
000320 54 59 ef bd 5f 4e 86 3d 12 a7 47 be 2b 66 81 3c
       -0.1168696 0.06557917 -0.19497326 0.015795788
000330 a9 9d e6 3d d5 9d 02 be d0 99 9d bc 0f f9 03 3e
       0.1126054 -0.1275552 -0.019238383 0.12887977
000340 0a 4a 46 3d 67 a2 c3 3d 19 9a 05 3e c1 39 d5 bd
       0.048410453 0.0955246 0.13047065 -0.10411406
000350 85 3f 9c bd e2 41 43 be 5d 38 43 3e 29 11 31 bd
       -0.07629303 -0.19068101 0.1906447 -0.043229256
000360 77 17 b0 bc c9 75 44 be 56 65 67 3d 4d bd 1d 3d
       -0.021495564 -0.19185556 0.056493126 0.03851061
000370 c8 3b 41 be cc 0d 44 3e 83 d9 2c 3e 0a 86 72 3d
       -0.18870461 0.19145888 0.16879849 0.05920986
000380 ee 99 45 be 30 f1 25 3e 44 10 96 3c 11 bc 26 3e
       -0.19297001 0.16205287 0.018318303 0.16282679
000390 61 ce c5 bc e7 09 e0 3d 14 1b 13 be 74 fc 4c be
       -0.02414626 0.10939389 -0.14365798 -0.20018178
0003a0 5c 69 a0 bc 98 86 1b 3d 32 79 2c be 2d 0f 19 3e
       -0.01958149 0.037970155 -0.16843107 0.14947195
0003b0 55 62 40 3e f5 65 c5 3c e1 90 bb ba d2 12 2c be
       0.1878751 0.024096468 -0.0014310145 -0.16804054
0003c0 db 82 53 3e 6f 27 ee 3d 35 f8 26 be 89 53 1f be
       0.20655386 0.11628615 -0.16305621 -0.1555921
0003d0 95 62 11 3e 79 6b b2 3d 55 b9 27 3e 18 86 18 be
       0.14197762 0.08711905 0.16379292 -0.14894903
0003e0 90 e6 2d 3e c8 77 05 bc 6b f0 a5 bd c6 19 35 be
       0.16982484 -0.008146234 -0.08102497 -0.17685613
0003f0 49 19 42 3a a8 2b 2c be b1 d7 bf 3d d0 da 2b be
       0.00074042805 -0.16813529 0.09367312 -0.16782689
